examples/fluids/createPyTorchModel/NNModel_HIT.pt (torch_old, 1908 bytes, 2 tensors)

net.0.bias f4 [20]
-0.29193226 -0.35967562 -0.5155971 0.057840466 -0.21216609 -0.10254817 -0.051842675 0.0036118478
0.14593776 -0.18148991 0.011306321 0.16701561 -0.073388614 -0.01634888 -0.104352795 -0.37354124
-0.0310836 0.007595814 0.117333174 0.28876314
00000000: 2578 95be 6727 b8be 2cfe 03bf 20ea 6c3d
00000010: 1142 59be c604 d2bd fc58 54bd c0b4 6c3b
00000020: b570 153e 7ed8 39be 263e 393c 2406 2b3e
00000030: c54c 96bd 16ee 85bc ebb6 d5bd cc40 bfbe
00000040: 09a3 febc 4ee6 f83b 604c f03d c3d8 933e

net.2.bias f4 [6]
0.027309947 0.022364236 -0.013548925 0.5093612 0.44307363 0.4504784
00000000: 1cb9 df3c 3435 b73c 4ffc 5dbc 7f65 023f
00000010: 8cda e23e 1ba5 e63e
